openamp/model_weights_ep-9.pt (torch, 519659 bytes, 100 tensors)

blocks.0.layers.0.conv.weight f4 [32, 16, 3]
0.09905141 0.045220744 -0.10116936 0.024719367 -0.05089427 0.030086044 0.06758009 0.024429379
-0.08429637 -0.060258225 -0.06788861 0.051527973 -0.09078215 -0.0035183479 -0.03185549 -0.080120325
0.082993 -0.041215748 0.012828078 0.08958334 0.040013403 0.024393592 0.023642046 0.009427299
-0.07557601 0.02003734 0.07816946 0.18596594 0.23651503 0.107108586 0.10579262 0.3372474
0.087878875 0.017802505 0.010689948 -0.0805465 -0.038081903 0.06741254 -0.12666754 -0.06422916
-0.11937526 -0.06552581 -0.0630313 -0.09590722 0.053604215 -0.023736848 -0.023428624 -0.02798073
0.022051618 -0.14860618 0.21779674 -0.10869252 0.029375236 -0.011916465 -0.17845358 -0.061388437
0.036069207 0.063599 -0.1906842 0.005804979 0.009910818 0.04984866 -0.21233813 -0.11870041
-0.06356067 0.0952253 -0.119568616 0.13164997 0.058503896 0.010761846 -0.05327614 -0.18453828
-0.24909782 -0.012180398 0.009815795 -0.13037685 -0.14965884 -0.08276324 -0.35425818 -0.19805136
-0.23812959 -0.06749207 0.003348813 0.048270673 0.040130667 0.019790912 -0.064500414 -0.013164752
0.06592426 -0.033543114 -0.057460573 -0.09969906 -0.05993599 0.01440161 0.067028426 -0.31877148
0.09426531 -0.3319787 0.3204273 0.20855914 -0.19617717 0.043987855 0.09079405 -0.38074118
0.26329008 0.0789886 0.49499276 -0.52204967 0.019560771 0.32302567 -0.34563816 -0.028767878
-0.57131064 0.6046928 0.13831598 0.6229304 -0.6926142 -0.08140497 0.2870369 -0.150537
0.17360352 -0.18576674 0.08610741 -0.0075900475 -0.52945316 0.7500894 -0.23695038 -0.7095527
0.8852519 0.19692731 0.73493046 -1.0950574 -0.042534154 0.42913318 -0.31726465 -0.07507575
0.23581736 -0.0052482625 0.018721024 0.53160137 -0.5760089 -0.248637 0.1797111 -0.07547241
-0.11711755 0.03747682 -0.20962206 0.15662822 0.25276977 -0.14156054 0.15363164 0.11402517
-0.07000202 -0.13997959 -0.22991952 0.47797197 -0.014436565 -0.20645988 0.24758033 -0.030659843
0.21509004 -0.37804663 -0.11244567 -0.287134 0.5507323 0.3425356 0.2133276 0.31103948
0.3276601 0.2880218 -0.016438922 0.23428741 0.23433234 -0.19640902 0.2616246 0.69469327
-0.4009513 -0.17758726 -0.5316696 0.5837988 -0.20434733 -0.058582112 0.22698615 0.12539649
-0.05722235 0.3227301 -0.012293328 -0.30089304 0.35154834 -0.020322079 -0.05088853 0.16365089
-0.009288752 0.11365743 -0.034245696 0.05812241 0.019326745 -0.02067927 0.14156236 -0.032620423
0.035609335 -0.27053463 -0.098011926 0.27277958 -0.13825977 0.18957895 0.2654095 0.22628966
-0.11771839 -0.2788384 -0.2097102 -0.038763802 0.37663555 -0.009314218 0.118844025 -0.14158173
0.024787273 -0.060287226 0.06849071 0.36283547 0.053954486 -0.15272583 0.4776029 0.21775879
-0.26185971 -0.49814793 0.029718375 0.40109643 -0.19037049 -0.030675206 0.19324593 0.08117395
0.19432256 0.1355291 -0.08885457 -0.048713338 0.31611162 -0.08181192 0.03190287 -0.035357863
-0.043529786 -0.03601247 0.08633929 -0.011328295 0.1787649 -0.05372782 -0.093209825 -0.015575441
0.111325406 0.043415822 0.04721883 0.11211591 0.20964119 0.061120667 -0.019245224 -0.056483474
00000000: 77db ca3d 6339 393d e231 cfbd 4580 ca3c
00000010: 8376 50bd 0277 f63c 6e67 8a3d 1f20 c83c
00000020: 93a3 acbd 54d1 76bd 2f09 8bbd ff0e 533d
00000030: feeb b9bd 1594 66bb e77a 02bd 2016 a4bd
00000040: 3cf8 a93d d8d1 28bd dc2c 523c 7877 b73d
00000050: 18e5 233d 12d5 c73c f7ac c13c f574 1a3c
00000060: 98c7 9abd 5925 a43c 4f17 a03d db6d 3e3e
00000070: ff30 723e bf5b db3d cda9 d83d b1ab ac3e
00000080: d7f9 b33d 8fd6 913c e424 2f3c 90f5 a4bd
00000090: c5fb 1bbd 960f 8a3d 23b5 01be 948a 83bd
000000a0: 047b f4bd 6532 86bd 8e16 81bd 016b c4bd
000000b0: 1890 5b3d c773 c2bc 63ed bfbc d837 e5bc
000000c0: 98a5 b43c 382c 18be 1c06 5f3e 2f9a debd
000000d0: 56a4 f03c 473d 43bc 89bc 36be 7172 7bbd
000000e0: 4ebd 133d 3140 823d b842 43be b137 be3b
000000f0: fc60 223c 1c2e 4c3d 2b6f 59be 3319 f3bd
00000100: 192c 82bd 7b05 c33d 64e0 f4bd 40cf 063e
00000110: c8a1 6f3d 7452 303c 1538 5abd 9af7 3cbe
00000120: 8013 7fbe 4b90 47bc 6ed2 203c 8281 05be
00000130: 2b40 19be c67f a9bd 5461 b5be facd 4abe
00000140: 3ed8 73be 4839 8abd c277 5b3b 78b7 453d
00000150: 0e60 243d 8d20 a23c cb18 84bd f9b0 57bc
00000160: 4c03 873d 8164 09bd c75b 6bbd 052f ccbd
00000170: 717f 75bd bbf4 6b3c 3346 893d 0436 a3be
00000180: 2c0e c13d 1df9 a9be 0c0f a43e 8790 553e
00000190: abe2 48be 9c2c 343d 3bf2 b93d 82f0 c2be
000001a0: f5cd 863e c6c4 a13d b16f fd3e 0ca5 05bf
000001b0: e93d a03c 9f63 a53e 7cf7 b0be 9daa ebbc
000001c0: 6a41 12bf 26cd 1a3f b4a2 0d3e 5e78 1f3f
000001d0: 2a4f 31bf a6b7 a6bd 80f6 923e 5f26 1abe
000001e0: 1fc5 313e a339 3ebe 1559 b03d efb5 f8bb
000001f0: 3e8a 07bf dc05 403f 1fa3 72be 3fa5 35bf
00000200: de9f 623f 50a7 493e 6724 3c3f d72a 8cbf
00000210: 4b38 2ebd 58b7 db3e 8370 a2be 51c1 99bd
00000220: 1b7a 713e 9ef9 abbb d55c 993c 0717 083f
00000230: 5275 13bf b39a 7ebe 3006 383e 4791 9abd
00000240: 53db efbd 4b81 193d 2aa7 56be 2663 203e
00000250: 0a6b 813e 3ff5 10be 9d51 1d3e 0786 e93d
00000260: 385d 8fbd cf56 0fbe 0670 6bbe beb8 f43e
00000270: 5887 6cbc 386a 53be b385 7d3e 5a2a fbbc
00000280: 9040 5c3e 548f c1be ea49 e6bd 3a03 93be
00000290: cbfc 0c3f d360 af3e 8d72 5a3e 9140 9f3e
000002a0: 11c3 a73e 9877 933e ebaa 86bc 0ae9 6f3e
000002b0: d1f4 6f3e 721f 49be a9f3 853e 6bd7 313f
000002c0: 7d49 cdbe 6fd9 35be 801b 08bf d773 153f
000002d0: 6d40 51be ccf3 6fbd 0f6f 683e f067 003e
000002e0: fc61 6abd e13c a53e f469 49bc a70e 9abe
000002f0: 25fe b33e 7d7a a6bc 7e70 50bd 1994 273e
00000300: da2f 18bc 3ac5 e83d 3745 0cbd c411 6e3d
00000310: 1f53 9e3c 9367 a9bc b9f5 103e fe9c 05bd
00000320: 18db 113d 8483 8abe 7aba c8bd c4a9 8b3e
00000330: f893 0dbe fc20 423e c1e3 873e 7ab8 673e
00000340: 5716 f1bd e8c3 8ebe 45be 56be cbc6 1ebd
00000350: 60d6 c03e a99a 18bc 7f64 f33d cdfa 10be
00000360: ae0e cb3c bdef 76bd db44 8c3d 92c5 b93e
00000370: 61ff 5c3d 2964 1cbe 5e88 f43e 29fc 5e3e
00000380: 7a12 86be 3f0d ffbe f373 f33c 835c cd3e
00000390: 7bf0 42be 924a fbbc 43e2 453e 873e a63d
000003a0: 7efc 463e 24c8 0a3e 63f9 b5bd a387 47bd
000003b0: 62d9 a13e 028d a7bd 95ac 023d 68d3 10bd
000003c0: 4a4c 32bd d081 13bd a7d2 b03d 509a 39bc
000003d0: 250e 373e b411 5cbd cbe4 bebd 2230 7fbc
000003e0: 93fe e33d cad4 313d 8868 413d 079d e53d
000003f0: 2eac 563e aa59 7a3d 29a8 9dbc 375b 67bd

blocks.0.layers.0.conv.bias f4 [32]
0.031777322 -0.080333956 0.14947604 -0.066417165 0.041333858 0.00041410324 -0.0072633806 0.07255008
-0.02288408 0.07715752 0.062066857 0.13050209 -0.030024841 0.010617143 -0.0153814815 0.055217944
0.9084308 0.025494251 0.22756164 -0.044990335 -0.15043867 -3.6337304 -0.14415912 0.14056285
-1.1584884 0.06700477 0.77426225 -1.1648514 0.13988513 -2.411124 -0.07157802 -0.11181787
00000000: f028 023d 2186 a4bd 3f10 193e b905 88bd
00000010: b14d 293d ff1b d939 a701 eebb 2395 943d
00000020: 6577 bbbc c304 9e3d d139 7e3d 57a2 053e
00000030: a8f6 f5bc 86f3 2d3c 9c02 7cbc 362c 623d
00000040: ec8e 683f 52d9 d03c eb05 693e c947 38bd
00000050: 980c 1abe 0a8f 68c0 739e 13be b5ef 0f3e
00000060: 5949 94bf cc39 893d 0d36 463f da19 95bf
00000070: 0c3e 0f3e db4f 1ac0 7f97 92bd c400 e5bd

blocks.0.layers.0.film.adaptor.weight f4 [64, 64]
0.2814568 -0.07809186 -0.67971843 -0.4794442 0.5304216 -0.26375186 0.35929283 0.27049714
-0.116472274 0.5048264 0.12556815 -0.6411879 -0.72533643 -0.10697072 -0.28381696 0.034446612
0.095474005 -0.14621757 -0.17514582 0.21175295 0.1583747 0.9591007 0.33065522 -0.24841739
-0.076953836 0.1773381 -0.34659323 -0.11204911 0.70113605 0.09512604 -0.054541513 0.3020834
0.24077936 -0.58611673 -0.3524374 -0.06733298 0.27219623 0.38863695 -0.940202 -0.55641276
0.08819295 -0.013452227 0.58504635 -9.474946e-05 0.3776123 -0.22876216 -0.11467866 -0.1333568
-0.23389971 0.9904571 0.16839477 0.26491323 -0.05868724 -0.16989581 -0.23247196 -0.9831496
0.1753059 0.028130805 -0.020883918 1.0641149 -0.10460439 0.54709476 -0.29099637 -0.07966096
0.016076807 -0.11435824 0.11743944 -0.41675583 -0.041254733 0.28261927 -0.24875689 0.14228019
1.0120047 0.7966888 -0.7760801 0.9706429 0.3666441 0.23344713 -0.50989646 0.9184154
0.060394198 0.49755812 -1.0976093 0.121203005 -0.36496115 -0.48482257 0.0024704272 -0.04481029
-0.34293887 -0.3787254 0.119203426 -1.1767305 -0.15981863 0.95452034 0.14954753 -0.2602189
-0.4761028 -0.46365714 0.7203383 0.32407358 0.9629318 -0.26754987 -0.02771045 -0.1646285
0.04363427 0.13145259 0.035327386 -0.45504835 0.22313611 0.067990534 0.44337448 0.03961449
0.10412112 0.6496446 -0.5500191 0.15229677 0.6386684 0.64127016 -0.8370179 -0.0026867187
-0.16116515 -0.26920897 0.27591297 -0.43571645 0.169327 -0.44210494 0.42445996 0.048648566
0.32907432 0.93073636 0.2987333 -1.195913 0.15779193 -0.053226046 -0.019029215 0.25952685
1.1963238 -0.07094019 0.57148737 0.48093843 -0.10766005 -0.17051911 -0.459195 -0.11886622
0.7741995 0.42237723 -0.81562614 0.33410344 0.2707627 -0.30586013 0.018254537 -0.45749843
-0.0021362293 -0.08536544 0.029019998 0.14531869 -0.071791686 -0.4883758 -0.27562556 0.6145594
-0.12697312 0.04104325 -0.1584151 0.2522911 0.12577264 -0.5929411 -0.43232134 -0.058261514
-0.18898198 -0.06599749 -1.0322226 0.17377537 -0.88183033 0.60367167 -1.1624172 -0.21633668
0.6226327 -0.29527512 -0.056379758 -0.887108 0.09673548 -0.6742113 -0.20417304 -0.22428903
0.12189876 0.39786297 -0.45513803 -0.93498063 -0.096914954 0.28427166 -0.83597684 -0.21869095
0.013431936 -0.39115414 -0.21832496 -0.1391743 0.44692683 -0.2905535 -0.30605918 0.27895203
-0.13327473 -0.51266575 -0.046381183 -1.1988314 -0.18848786 0.15559044 0.5057991 0.2563017
-0.29081592 -0.45447388 0.74785364 -0.35478958 0.04619291 0.7853551 -0.30803138 0.099522226
0.24079861 -0.22331724 0.67154866 0.6052901 0.0960864 -0.07047968 -0.4090302 -0.44563377
0.1698372 -0.075838394 -0.48662174 0.48151904 0.6977582 0.28583798 0.18137868 -0.16945702
0.16543569 0.15919182 0.07898313 0.47836503 0.24764927 0.029567689 0.22572225 -0.06708363
0.29439232 -0.5385905 0.4933522 0.2999841 0.4052254 -0.83569556 -0.31025904 -0.51933277
-0.1440188 -0.022640016 0.18841873 -0.17054841 -0.22408465 -0.58564454 -0.3363952 0.34334922
00000000: 1b1b 903e a0ee 9fbd 0702 2ebf b679 f5be
00000010: b6c9 073f 7c0a 87be 3bf5 b73e 9a7e 8a3e
00000020: 0489 eebd 4e3c 013f f094 003e e424 24bf
00000030: a6af 39bf 7713 dbbd 7550 91be e417 0d3d
00000040: e087 c33d 0fba 15be 6d59 33be c4d5 583e
00000050: fa2c 223e a087 753f a44b a93e 2161 7ebe
00000060: f999 9dbd 1e98 353e ab74 b1be 017a e5bd
00000070: a77d 333f 71d1 c23d ec66 5fbd adaa 9a3e
00000080: dd8e 763e bf0b 16bf ad72 b4be e0e5 89bd
00000090: 4e5d 8b3e 6cfb c63e 14b1 70bf 1171 0ebf
000000a0: 819e b43d bb66 5cbc 99c5 153f 3bb4 c6b8
000000b0: 6656 c13e a140 6abe a5dc eabd af8e 08be
000000c0: 6883 6fbe 998e 7d3f ae6f 2c3e b5a2 873e
000000d0: 0862 70bd 2bf9 2dbe 210d 6ebe b1af 7bbf
000000e0: 6483 333e 9372 e63c c014 abbc eb34 883f
000000f0: d43a d6bd 670e 0c3f 7afd 94be 4925 a3bd
00000100: 82b3 833c a734 eabd 1784 f03d 0561 d5be
00000110: b9fa 28bd 79b3 903e 20ba 7ebe e6b1 113e
00000120: 5f89 813f ccf3 4b3f 2fad 46bf 0e7c 783f
00000130: c7b8 bb3e c40c 6f3e 9388 02bf 461d 6b3f
00000140: e85f 773d f0bf fe3e 767e 8cbf 4839 f83d
00000150: 30dc babe aa3a f8be e4e6 213b ff8a 37bd
00000160: af95 afbe 4ce8 c1be ed20 f43d 1b9f 96bf
00000170: 7fa7 23be 725b 743f fd22 193e 693b 85be
00000180: bfc3 f3be 7864 edbe 1768 383f f9ec a53e
00000190: b382 763f 4cfc 88be 0701 e3bc 6094 28be
000001a0: d9b9 323d 829b 063e 73b3 103d 19fc e8be
000001b0: cb7d 643e 9f3e 8b3d fb01 e33e ce42 223d
000001c0: 743d d53d 1c4f 263f 0dce 0cbf aff3 1b3e
000001d0: c67f 233f 482a 243f ce46 56bf a913 30bb
000001e0: 7a08 25be c2d5 89be 7744 8d3e 3a16 dfbe
000001f0: 0f64 2d3e 945b e2be d152 d93e b843 473d
00000200: 6e7c a83e bd44 6e3f 92f3 983e ad13 99bf
00000210: 3594 213e 8e03 5abd 28e3 9bbc b4e0 843e
00000220: 2321 993f 1749 91bd ff4c 123f 903d f63e
00000230: df7c dcbd 909c 2ebe 9b1b ebbe 2270 f3bd
00000240: f031 463f d441 d83e e0cc 50bf 9b0f ab3e
00000250: 69a1 8a3e b399 9cbe 8a8a 953c 3c3d eabe
00000260: fbff 0bbb 13d4 aebd 59bb ed3c 6cce 143e
00000270: 8507 93bd 650c fabe cb1e 8dbe c453 1d3f
00000280: 3e05 02be f81c 283d 9137 22be 4d2c 813e
00000290: 8bca 003e fdca 17bf 3959 ddbe a0a3 6ebd
000002a0: 7e84 41be b129 87bd df1f 84bf 2cf2 313e
000002b0: a2bf 61bf 3a8a 1a3f 16ca 94bf 5d87 5dbe
000002c0: db64 1f3f 4d2e 97be 76ee 66bd 8319 63bf
000002d0: 401d c63d 1d99 2cbf bd12 51be 06ac 65be
000002e0: 0fa6 f93d b2b4 cb3e da07 e9be e45a 6fbf
000002f0: 597b c6bd 0e8c 913e 9402 56bf 85f0 5fbe
00000300: 9f11 5c3c 5b45 c8be 9490 5fbe b583 0ebe
00000310: 98d3 e43e 6ec3 94be cab3 9cbe cdd2 8e3e
00000320: 2c79 08be 103e 03bf 32fa 3dbd 4f73 99bf
00000330: f602 41be 1a53 1f3e 0d7c 013f fa39 833e
00000340: d3e5 94be cdb0 e8be 5673 3f3f fba6 b5be
00000350: c734 3d3d 080d 493f 4ab6 9dbe 4fd2 cb3d
00000360: e993 763e 46ad 64be 9dea 2b3f 4bf4 1a3f
00000370: f2c8 c43d a757 90bd 686c d1be 1c2a e4be
00000380: cee9 2d3e 2951 9bbd 7c26 f9be aa89 f63e
00000390: 48a0 323f 5b59 923e 55bb 393e 2486 2dbe
000003a0: f967 293e 2e03 233e e8c1 a13d 43ec f43e
000003b0: c597 7d3e f037 f23c bc23 673e 2463 89bd
000003c0: 97ba 963e 11e1 09bf a998 fc3e 8497 993e
000003d0: b479 cf3e 25f0 55bf 46da 9ebe fef2 04bf
000003e0: aa79 13be 8e77 b9bc d7f0 403e 3ea4 2ebe
000003f0: 7276 65be cdec 15bf fe3b acbe 78cb af3e

blocks.0.layers.0.film.adaptor.bias f4 [64]
0.062457144 0.2747159 -0.028485466 -0.47383478 -0.2206325 0.37281325 0.028775211 -0.060245067
-0.5053206 0.14713195 -0.23856016 -0.53789556 0.09479376 -0.43559346 -0.34625322 -0.19648807
-0.059930764 -0.12736766 -0.29233027 0.20161273 0.059888 -0.30324662 0.05033204 0.24049191
-0.15012048 0.01812053 -0.54850096 0.5533115 -0.17470396 0.06906586 0.08249756 -0.0967972
0.020865573 0.29872903 0.015073878 -0.012578018 0.04520948 -0.0660653 0.022117369 -0.15332662
-0.021605317 0.11397116 -0.14013058 -0.006015238 -0.05908295 0.07765001 0.105074234 0.1165264
0.06247786 -1.5505577 -2.217757 -1.5077375 -0.81501347 0.8709734 -1.6899643 -2.0415242
1.1102661 -1.5997181 -2.1331906 -1.3470769 -2.0584738 -0.18010443 -0.8633639 -2.081403
00000000: 10d3 7f3d 90a7 8c3e 5a5a e9bc 799a f2be
00000010: 7ced 61be 61e1 be3e feb9 eb3c 88c3 76bd
00000020: b15c 01bf c2a9 163e 1d49 74be 86b3 09bf
00000030: 3b23 c23d 1b06 dfbe 1a48 b1be 2b34 49be
00000040: f679 75bd ab6c 02be 50ac 95be 9173 4e3e
00000050: 1f4d 753d 2443 9bbe f828 4e3d 8343 763e
00000060: 2fb9 19be 8171 943c 8f6a 0cbf d3a5 0d3f
00000070: 98e5 32be 6772 8d3d 7bf4 a83d 9c3d c6bd
00000080: 47ee aa3c 03f3 983e 6df8 763c 0814 4ebc
00000090: 932d 393d 3e4d 87bd 7c2f b53c a701 1dbe
000000a0: a2fd b0bc b669 e93d 647e 0fbe 791b c5bb
000000b0: f700 72bd f806 9f3d 2931 d73d 65a5 ee3d
000000c0: c9e8 7f3d ad78 c6bf bbef 0dc0 8bfd c0bf
000000d0: b9a4 50bf 1df8 5e3f c050 d8bf 55a8 02c0
000000e0: 331d 8e3f 90c3 ccbf 3286 08c0 046d acbf
000000f0: 09be 03c0 4c6d 38be 6b05 5dbf b535 05c0

blocks.0.layers.0.resi_con.weight f4 [16, 16, 1]
0.35705036 -1.101438 -0.06385381 -0.96930295 0.6337569 -0.8874905 0.12910527 0.37607747
0.916628 0.33804277 0.41816866 -0.016801566 -0.33604276 -1.2421259 -0.19126692 1.2256562
1.931998 -0.5112441 0.0068724463 0.76875705 -1.4244795 -0.986423 0.489738 0.20926915
0.86509126 1.0057231 0.16821392 0.042533953 -0.20807503 0.19810432 0.82470655 -0.50359684
0.30452293 -0.43256328 -0.6182974 -0.08151003 0.72581524 -0.41386557 -0.43343404 -0.025721952
1.0702612 0.12888123 -0.4207718 -0.24757047 0.12599942 -0.1497463 -1.5541115 0.74208003
-0.1942721 0.9432482 -0.5264453 0.55777824 -1.2325253 -0.32071477 -0.39273435 -1.6001765
-0.5532153 -0.16552457 -0.054468382 -0.08456969 0.16765626 0.03865815 -1.1976025 -0.3955799
0.58447313 1.4930254 -0.02064083 0.15237865 0.27953634 -0.19748127 -0.3821517 -0.3137722
-0.3544158 -1.8263388 -0.02392369 0.36503744 0.30718347 0.39506164 -0.21590689 -0.11803252
0.44625956 -1.351077 -1.2364794 -0.36827135 -0.28123707 0.108173236 0.2659811 -1.2623942
-0.26815575 1.6334152 1.3806342 -0.030132597 -0.86319435 -0.672869 1.2488205 0.5093039
0.56010485 0.54663736 -0.6418229 0.25846893 0.79879665 -0.21020886 -0.82946634 0.020727025
0.60257953 -0.87047887 0.066829786 0.042723827 0.24959016 -0.053366557 -0.43328974 -0.36258617
-0.303712 0.772722 -0.37471628 0.50477475 0.47684467 -0.4719956 0.28541267 0.078601055
-0.5032455 -0.7575765 -0.0014613734 -0.49570766 -0.058205474 -0.004937999 0.9362092 0.11234865
0.5608241 -1.000263 0.2477277 -0.26810098 -0.95314384 -0.82387894 0.18846917 -0.28639448
2.918645 0.96570194 0.3242424 0.07542796 -0.51704735 -0.3105481 0.21061479 0.43806216
-0.1365906 -0.58729833 0.29369336 -1.1130267 -0.653044 -1.2716572 0.23912358 0.6605637
2.1193032 0.9631746 -0.7542755 0.077448726 0.8304559 -1.1652622 1.1891994 0.72164273
0.54485816 -1.102429 -1.9285637 -1.659933 -0.99176234 -1.6784188 -0.2219818 -2.268048
2.1756284 0.80102277 -0.20625454 0.052260377 -0.2456653 -1.3143871 0.6548353 1.2910529
-0.350334 0.04117444 -0.6431806 0.4963457 -0.6371253 -0.5973913 0.56710225 -0.51094264
-0.51235646 0.5847881 -0.12897427 0.23209584 0.5403984 -0.25394315 -0.5967285 0.34564954
1.5668019 0.6642823 -0.578152 -0.073494084 -0.46324414 0.12833697 0.21374673 -0.20238228
0.6657003 -0.8677612 -0.55383575 -0.112617075 0.8900605 0.4363379 -0.316987 -0.26057073
1.0042702 0.098511666 0.0011025928 0.17718692 0.6455816 0.41086665 0.4791916 0.08051061
-1.3568866 -0.68805534 -1.2618107 -0.14931221 -0.10171011 0.14272906 0.62955064 -0.1429953
-0.4678772 1.2061526 -0.5419837 0.64328665 1.0665435 -0.41745102 -0.09958304 -0.06960473
-0.08715175 -1.7829529 0.19820465 -0.071302444 0.45242697 0.48404983 -1.2961085 0.115481116
0.42753145 1.3391006 -1.3253777 0.7091167 0.3820784 0.31017646 0.3298268 -1.1697645
-2.2176628 -1.8982304 -0.095763616 -0.11537617 -1.0770255 -0.03304636 0.3165551 -1.10386
00000000: 4ecf b63e ecfb 8cbf c9c5 82bd 3d24 78bf
00000010: e43d 223f 9432 63bf 2c34 043e 3a8d c03e
00000020: 22a8 6a3f f113 ad3e 341a d63e 70a3 89bc
00000030: cc0d acbe fbfd 9ebf 7adb 43be 4de2 9c3f
00000040: b64b f73f e5e0 02bf 4232 e13b 43cd 443f
00000050: 5855 b6bf 3886 7cbf f0be fa3e a74a 563e
00000060: 9f76 5d3f 89bb 803f 4540 2c3e 1538 2e3d
00000070: 9f11 55be dcdb 4a3e f81f 533f b9eb 00bf
00000080: 6eea 9b3e ef78 ddbe bd48 1ebf bbee a6bd
00000090: 07cf 393f 30e6 d3be 11eb ddbe d8b6 d2bc
000000a0: 52fe 883f 71f9 033e 676f d7be 1d83 7dbe
000000b0: fe05 013e 1857 19be 20ed c6bf f5f8 3d3f
000000c0: 44ef 46be b778 713f 1fc5 06bf 8eca 0e3f
000000d0: 64c3 9dbf ba34 a4be 7a14 c9be 95d2 ccbf
000000e0: 859f 0dbf 467f 29be 3d1a 5fbd e032 adbd
000000f0: 15ae 2b3e 0258 1e3d 0a4b 99bf 7389 cabe
00000100: 08a0 153f 751b bf3f f516 a9bc 2609 1c3e
00000110: 631f 8f3e 8838 4abe 63a9 c3be c0a6 a0be
00000120: fd75 b5be 78c5 e9bf 9dfb c3bc 30e6 ba3e
00000130: 2747 9d3e 8545 ca3e b216 5dbe 09bb f1bd
00000140: 227c e43e 17f0 acbf f544 9ebf 108e bcbe
00000150: 4efe 8fbe ee89 dd3d ad2e 883e 2296 a1bf
00000160: b64b 89be c013 d13f 9fb8 b03f a3d8 f6bc
00000170: 4efa 5cbf 2541 2cbf 5ad9 9f3f be61 023f
00000180: 0863 0f3f 6df0 0b3f 814e 24bf 0a56 843e
00000190: f07d 4c3f fe40 57be e857 54bf b9cb a93c
000001a0: a742 1a3f b4d7 5ebf 0ede 883d 2eff 2e3d
000001b0: 9094 7f3e e496 5abd 27d8 ddbe e5a4 b9be
000001c0: 2480 9bbe 1cd1 453f d0da bfbe eb38 013f
000001d0: fc24 f43e 68a9 f1be 9c21 923e 97f9 a03d
000001e0: b2d4 00bf 89f0 41bf 8e8b bfba 65cd fdbe
000001f0: dd68 6ebd f0ce a1bb 68ab 6f3f 0d17 e63d
00000200: 2b92 0f3f 9e08 80bf 55ac 7d3e 8844 89be
00000210: 3c01 74bf bbe9 52bf 10fe 403e 4ca2 92be
00000220: 14cb 3a40 3e38 773f 1a03 a63e f979 9a3d
00000230: 375d 04bf 2900 9fbe 67ab 573e af49 e03e
00000240: 68de 0bbe 2f59 16bf fa5e 963e a977 8ebf
00000250: e42d 27bf aac5 a2bf d0dc 743e b41a 293f
00000260: aaa2 0740 9c92 763f 3318 41bf 709d 9e3d
00000270: c298 543f 5027 95bf b037 983f 94bd 383f
00000280: d37b 0b3f 651c 8dbf 2ddb f6bf af78 d4bf
00000290: 23e4 7dbf 6dd6 d6bf 324f 63be b327 11c0
000002a0: 7f3d 0b40 d40f 4d3f 6434 53be fa0e 563d
000002b0: af8f 7bbe d63d a8bf 49a3 273f 3941 a53f
000002c0: fa5e b3be 88a6 283d 7ca7 24bf 0621 fe3e
000002d0: a51a 23bf a3ee 18bf 9d2d 113f 23cd 02bf
000002e0: cb29 03bf acb4 153f d511 04be 88aa 6d3e
000002f0: 8d57 0a3f d604 82be 33c3 18bf faf8 b03e
00000300: f78c c83f 680e 2a3f c501 14bf 1184 96bd
00000310: 562e edbe c46a 033e 6ce0 5a3e 4d3d 4fbe
00000320: 566b 2a3f 9925 5ebf 2ec8 0dbf c8a3 e6bd
00000330: 01db 633f ae67 df3e 1f4c a2be 8769 85be
00000340: ed8b 803f 7cc0 c93d e084 903a 7d70 353e
00000350: d644 253f 1d5d d23e 9a58 f53e bfe2 a43d
00000360: 76ae adbf 6524 30bf 0383 a1bf 4de5 18be
00000370: 644d d0bd 9127 123e 3b2a 213f 5c6d 12be
00000380: 9a8d efbe 3563 9a3f 72bf 0abf 6fae 243f
00000390: 7f84 883f 24bc d5be 31f2 cbbd ed8c 8ebd
000003a0: 9e7c b2bd cd37 e4bf 29f6 4a3e 0407 92bd
000003b0: 82a4 e73e 61d5 f73e e2e6 a5bf 5d81 ec3d
000003c0: 67e5 da3e a667 ab3f faa5 a9bf ac88 353f
000003d0: c89f c33e 73cf 9e3e 0fdf a83e d8ba 95bf
000003e0: 30ee 0dc0 37f9 f2bf b71f c4bd 574a ecbd
000003f0: f9db 89bf 9f5b 07bd 8313 a23e 494b 8dbf

blocks.0.layers.0.resi_con.bias f4 [16]
-0.0043970556 0.032749984 0.039645445 -0.09123319 -0.042527217 -0.08664759 0.015674422 -0.059573613
-0.0026830672 0.013869833 -0.19182433 -0.02824424 0.046122704 0.040013757 -0.02708441 -0.10562914
00000000: 2d15 90bb d924 063d 4363 223d 77d8 babd
00000010: 0531 2ebd 4b74 b1bd a567 803c 7603 74bd
00000020: 66d6 2fbb 4c3e 633c 996d 44be 7760 e7bc
00000030: 29eb 3c3d 77e5 233d 20e0 ddbc 1754 d8bd

blocks.0.layers.1.conv.weight f4 [32, 16, 3]
-0.5411346 0.0902373 1.0150464 -1.0001936 0.05868644 -0.012307685 0.7717421 0.4001061
-0.78558195 -0.657974 0.7256253 -0.49515414 -0.6225497 0.10940873 0.7691895 -0.39554903
-1.03855 0.17905249 0.5626896 -0.09759213 1.3328711 -1.2146056 -0.9367783 1.6976483
0.6566413 1.3029989 -0.5969019 -0.011679264 -1.3331505 0.61290205 -0.065071605 -1.9190792
1.0456451 0.5124024 2.8772469 -1.3765926 -0.84952706 0.6714556 -0.03963936 -0.10899104
-0.86665815 1.4241742 -0.41550556 0.7900814 -1.1433296 -0.76833385 -1.0911484 1.9610012
0.39473498 0.2840225 -0.18506937 -0.9410966 -0.3559884 0.6425312 -1.2196002 0.24761146
0.09939104 -1.2336613 0.66887033 0.4004979 0.48969507 1.7991279 -1.5886219 0.16167365
-1.7045211 0.6525214 -0.28851697 1.5693394 0.052626077 1.1442026 1.864544 -0.29479986
-0.9611097 0.040371336 1.5541564 1.0304309 -0.9842517 -0.46752307 0.5074713 -0.7836685
0.0974042 0.8543953 1.6188804 -3.0523827 -0.47756565 1.5580473 -1.0005475 -0.47302383
0.8479275 -1.5452265 -0.018987859 1.6131544 -1.9708154 0.4320428 1.2418592 -1.2598056
-0.5103579 -4.150517 3.1260524 -0.73002833 0.07639364 1.4601473 1.8634733 -3.6575477
4.916435 2.1926808 4.169471 0.010705061 -2.2321088 2.9427328 -3.6411574 -1.668639
-4.326426 2.9224536 0.45559525 0.8216016 -0.81961715 -0.21500364 3.0138435 1.4683552
-1.6515129 -3.8977296 3.551143 0.17035274 -2.242572 3.6848752 -1.067986 -3.341353
3.9297242 -2.1732328 0.30131322 -2.0125413 -3.5693588 3.3309622 -1.2772582 1.7164326
4.7609954 -2.4080336 -0.33453587 1.0793134 -1.7795154 0.56027764 2.4905536 -4.81545
0.34998894 -2.8746598 2.1583004 0.26297265 1.3537524 2.4259741 2.0269296 -0.33544075
3.2697053 -0.1629695 2.7534888 -0.58130395 -3.4456046 -0.6987164 -3.7003024 0.8333597
-3.0700078 1.2112359 -0.17537788 -0.50703216 -2.4385839 0.2009496 5.7119217 4.0192485
-1.0114439 -2.5197377 1.3994495 -0.6909709 -2.6416402 2.8083067 -0.34432745 -4.2661963
2.2950656 -1.8947128 -2.3321748 -4.3505344 -0.34025833 2.4926698 -1.1391405 -1.7736968
1.6765072 -1.6500921 0.7773566 2.7042 -0.3180198 -0.5505976 1.0087539 -0.9384815
1.1777265 0.17625841 -0.9449194 0.8379763 0.210676 -0.3338835 0.7207509 0.7743687
-2.1420395 0.8425998 0.5356713 -0.9918716 0.41963395 -1.3664085 1.1112028 0.2150926
0.691679 -1.5331464 1.1330923 -0.15616454 1.1453741 -0.23606077 -0.7997081 0.9014096
1.0922631 0.050731823 -0.36862272 1.8392304 0.3835613 -1.6070273 1.4764178 0.37791467
-2.8213658 -0.4432045 0.52014077 0.15433213 -0.7250763 -0.02009494 0.31181085 -2.121191
-0.32031345 1.7528995 0.372558 -0.25793222 0.5055763 -0.3284584 0.58349985 1.1397039
-1.0982466 -3.2964776 1.5311077 -1.0164065 -2.9045098 3.0055819 1.8817446 0.9795372
-0.8810681 0.7992691 3.1720667 -0.20968159 -2.2846882 -1.2719164 -0.80106294 -1.0684338
00000000: cc87 0abf 55ce b83d 0aed 813f 5806 80bf
00000010: 3161 703d 2ca6 49bc e490 453f b5da cc3e
00000020: e61b 49bf fc70 28bf 94c2 393f d884 fdbe
00000030: 6b5f 1fbf af11 e03d 9ae9 443f 6785 cabe
00000040: 35ef 84bf 8959 373e 6d0c 103f 62de c7bd
00000050: 859b aa3f 3278 9bbf b4d0 6fbf 8a4c d93f
00000060: a519 283f abc8 a63f 90ce 18bf 625a 3fbc
00000070: ada4 aabf 26e7 1c3f 4344 85bd 63a4 f5bf
00000080: b3d7 853f ce2c 033f d024 3840 3034 b0bf
00000090: 9b7a 59bf 84e4 2b3f e25c 22bd b236 dfbd
000000a0: 4fdd 5dbf 574b b63f 25bd d4be c642 4a3f
000000b0: a058 92bf 87b1 44bf c0aa 8bbf 1602 fb3f
000000c0: b41a ca3e 666b 913e d382 3dbe b5eb 70bf
000000d0: 1d44 b6be ed7c 243f dc1b 9cbf dc8d 7d3e
000000e0: 888d cb3d 9de8 9dbf 163b 2b3f 100e cd3e
000000f0: 50b9 fa3e d349 e63f f657 cbbf c78d 253e
00000100: bf2d dabf a40b 273f 7fb8 93be 1de0 c83f
00000110: 718e 573d 3b75 923f 61a9 ee3f 02f0 96be
00000120: 490b 76bf 6a5c 253d 99ee c63f 29e5 833f
00000130: ebf7 7bbf 2f5f efbe a4e9 013f 809e 48bf
00000140: da7b c73d a6b9 5a3f 7937 cf3f 3d5a 43c0
00000150: 7c83 f4be 186e c73f f111 80bf 2e30 f2be
00000160: c711 593f fbc9 c5bf 6d8c 9bbc d87b ce3f
00000170: ae43 fcbf b734 dd3e 3ef5 9e3f 4f41 a1bf
00000180: d1a6 02bf 09d1 84c0 3e11 4840 23e3 3abf
00000190: 4574 9c3d 1be6 ba3f 4b86 ee3f 4315 6ac0
000001a0: 6f53 9d40 e254 0c40 4e6c 8540 4864 2f3c
000001b0: dfda 0ec0 bc55 3c40 b908 69c0 f695 d5bf
000001c0: 1572 8ac0 7b09 3b40 c843 e93e 7c54 523f
000001d0: 6ed2 51bf ea29 5cbe d0e2 4040 10f3 bb3f
000001e0: c664 d3bf 6774 79c0 ed45 6340 f370 2e3e
000001f0: 4d86 0fc0 ffd4 6b40 c4b3 88bf bad8 55c0
00000200: 9a80 7b40 3f16 0bc0 ba45 9a3e 7acd 00c0
00000210: 6070 64c0 7c2e 5540 327d a3bf 10b4 db3f
00000220: 135a 9840 391d 1ac0 4948 abbe f126 8a3f
00000230: 29c7 e3bf 5b6e 0f3f 3b65 1f40 2b18 9ac0
00000240: c031 b33e 6dfa 37c0 9821 0a40 5aa4 863e
00000250: c247 ad3f 2943 1b40 37b9 0140 e4be abbe
00000260: da42 5140 7ae1 26be 2939 3040 56d0 14bf
00000270: c984 5cc0 14df 32bf c1d1 6cc0 1057 553f
00000280: 027b 44c0 c709 9b3f 4296 33be dccc 01bf
00000290: c211 1cc0 bbc5 4d3e 10c8 b640 af9d 8040
000002a0: fe76 81bf 6243 21c0 2921 b33f 78e3 30bf
000002b0: a210 29c0 4cbb 3340 b04b b0be ae84 88c0
000002c0: 5be2 1240 f385 f2bf 5a42 15c0 9437 8bc0
000002d0: 5736 aebe e787 1f40 5bcf 91bf 7f08 e3bf
000002e0: ca97 d63f 3836 d3bf d800 473f 9d11 2d40
000002f0: 7ed3 a2be f7f3 0cbf d91e 813f 5340 70bf
00000300: bebf 963f 167d 343e 3de6 71bf 9d85 563f
00000310: 73bb 573e c7f2 aabe 2283 383f 073d 463f
00000320: 2d17 09c0 9fb4 573f c121 093f 4ceb 7dbf
00000330: 43da d63e 79e6 aebf e53b 8e3f 3c41 5c3e
00000340: e011 313f 243e c4bf 2b09 913f 99e9 1fbe
00000350: 9e9b 923f eab9 71be acb9 4cbf c8c2 663f
00000360: 47cf 8b3f 2ccc 4f3d 1ebc bcbe e76b eb3f
00000370: 2662 c43e 12b3 cdbf 42fb bc3f 087e c13e
00000380: 4291 34c0 b3eb e2be f227 053f 3e09 1e3e
00000390: 9a9e 39bf 259e a4bc aca5 9f3e 98c1 07c0
000003a0: 2000 a4be 035f e03f ecbf be3e b10f 84be
000003b0: 736d 013f b32b a8be 3f60 153f d1e1 913f
000003c0: 5893 8cbf 7df9 52c0 56fb c33f 9c19 82bf
000003d0: 7de3 39c0 745b 4040 02dd f03f f3c2 7a3f
000003e0: ae8d 61bf e69c 4c3f 2403 4b40 c5b6 56be
000003f0: 5538 12c0 28ce a2bf 7612 4dbf 70c2 88bf

blocks.0.layers.1.conv.bias f4 [32]
0.017909601 -0.54708064 -1.6879404 0.79715157 0.07704101 -0.032767538 -0.35193706 0.04663414
1.2787414 -0.076310016 -0.21499822 -0.19525401 0.08788633 0.1323822 0.25141165 0.13263163
-0.082679816 0.22882724 0.09427432 0.6720134 0.18361546 -0.46505293 0.080738135 -0.8150792
-0.30042425 -0.0995231 -0.09683511 1.5401766 0.04265203 0.7098759 -0.24464162 0.41381773
00000000: 28b7 923c 7a0d 0cbf 6e0e d8bf 2012 4c3f
00000010: adc7 9d3d 4137 06bd 1831 b4be 7103 3f3d
00000020: ccad a33f 6d48 9cbd 7e28 5cbe abf0 47be
00000030: c0fd b33d 338f 073e 07b9 803e 96d0 073e
00000040: 0954 a9bd b051 6a3e e512 c13d 1209 2c3f
00000050: b105 3c3e 6b1b eebe 095a a53d 08a9 50bf
00000060: 35d1 99be c4d2 cbbd 7c51 c6bd 8224 c53f
00000070: e5b3 2e3d 6dba 353f 5583 7abe ebdf d33e

blocks.0.layers.1.film.adaptor.weight f4 [64, 64]
-0.23233159 0.04614846 -0.060983803 -0.28084704 0.11742619 -0.06490773 -0.21346304 -0.272687
0.26760203 -0.063201964 0.22618005 0.3263306 -0.13848533 -0.3117976 -0.41342044 -0.3162127
-0.113468826 -0.01264001 0.1384465 -0.026620373 -0.14557363 -0.0046923934 0.16005307 -0.3569053
0.1330798 0.18600582 0.11127318 -0.046955626 -0.4448139 0.18635705 -0.17308325 0.06893141
-0.07374159 -0.09905317 -0.058343817 -0.2967732 0.14532459 0.010133968 -0.055109482 -0.1265393
-0.007725878 0.12659019 -0.10324058 -0.15589158 0.12180847 0.04063502 -0.00023095917 0.28797892
0.11266917 -0.26312062 -0.17696157 0.37548813 -0.009594589 -0.03128963 -0.08588284 -0.25002173
0.09149102 0.36213112 -0.054228917 0.1752127 -0.29748556 0.050740574 0.26291886 0.017356353
-0.6299546 -0.18879889 0.3928942 0.17251563 0.095186435 0.67573816 -0.054713618 0.053141516
-0.09409717 0.19833341 0.37388462 -0.25040913 0.21306856 0.09061269 0.047408093 -0.089526124
0.16019799 0.6053902 0.32151198 -0.11418006 -0.52113885 -0.5059876 0.24381295 0.037896797
-0.14119203 0.061127078 -0.37449092 0.3848072 -0.29226497 0.2498901 -0.2723342 -0.10066663
0.1368822 -0.456898 -0.027042154 -0.0064759073 0.031475373 -0.03794127 0.24897549 -0.39396086
0.023955273 -0.095404975 -0.021810457 -0.07557449 0.66876394 0.13719167 0.5897679 -0.87749904
0.10853576 -0.0123303095 -0.31543887 0.317652 -0.6757525 0.23541787 0.16032387 -0.17218749
0.07362463 0.5692527 -0.031955164 -0.26329508 -0.0023000166 0.3610743 -0.16410899 -0.5768384
-0.050151166 0.02013556 -0.037102107 -0.13855405 0.015404832 0.10895819 -0.042032972 -0.10945025
0.013988463 0.018754207 -0.0006927103 -0.013112683 -0.021209583 0.1050503 0.037384633 0.055409484
-0.09864364 -0.052883156 0.0425158 0.07495438 0.045893572 -0.09305433 0.027541025 0.027976884
0.08792872 0.02969253 -0.016132306 0.00017103509 0.025569929 0.06131593 -0.120674066 0.075190865
-0.15906674 -0.07179731 0.014796795 0.03928974 0.006156944 -0.07885454 0.13365644 0.032493602
0.04482267 -0.016251374 0.146163 0.02851268 0.082126305 0.123430975 0.018595373 -0.03741758
0.13310948 -0.07269678 -0.018297886 0.10962571 -0.15618019 -0.020431168 -0.07327021 0.042688362
-0.15757133 0.17071864 -0.13652551 -0.043575596 0.023260606 0.12325414 0.108675666 -0.12266115
0.13917868 0.0522466 0.033452537 0.11234434 0.005723896 0.28698337 -0.1505611 -0.040625144
0.3625244 -0.0008906627 -0.021991562 -0.03098309 -0.27640685 0.20720103 -0.19420728 -0.11166654
0.15607272 -0.1447607 0.13596429 -0.27002233 0.10420397 0.21428439 -0.13825057 -0.18954644
-0.12525715 -0.1828413 -0.6925863 0.0698003 0.22288471 -0.36849076 -0.0075767604 -0.14106448
-0.1269158 -0.028419215 -0.41912284 -0.06072977 -0.0389072 0.1240975 -0.02149637 0.21314771
-0.14054063 -0.05117249 -0.18615453 -0.1791995 0.09991382 0.011543802 -0.046370264 -0.080434084
0.048823565 0.11339765 0.32531548 -0.29937154 -0.03507424 -0.17504764 0.03536257 -0.56890154
-0.17202611 -0.52150553 -0.010727989 0.14234939 -0.34359613 -0.15327306 0.20670055 0.15409978
00000000: 55e8 6dbe 2b06 3d3d 27ca 79bd 2fcb 8fbe
00000010: 247d f03d 58ee 84bd 0e96 5abe a19d 8bbe
00000020: 2203 893e 0870 81bd be9b 673e ce14 a73e
00000030: 19cf 0dbe efa3 9fbe d8ab d3be a2e6 a1be
00000040: 5862 e8bd 0b18 4fbc ebc4 0d3e f812 dabc
00000050: 4111 15be a6c2 99bb f4e4 233e 4bbc b6be
00000060: 1246 083e 4f78 3e3e 31e3 e33d 8b54 40bd
00000070: a6be e3be 62d4 3e3e bc3c 31be e92b 8d3d
00000080: d505 97bd 63dc cabd edf9 6ebd a8f2 97be
00000090: f8cf 143e f108 263c 7bba 61bd 8593 01be
000000a0: 5d29 fdbb dca0 013e cc6f d3bd 0ba2 1fbe
000000b0: b876 f93d e870 263d a12d 72b9 f971 933e
000000c0: 18bf e63d bfb7 86be 6a35 35be fb3f c03e
000000d0: 9f32 1dbc 8e29 00bd 58e3 afbd d902 80be
000000e0: a55f bb3d 4069 b93e 241f 5ebd f56a 333e
000000f0: 0750 98be 59d5 4f3d 4d9d 863e e92e 8e3c
00000100: b444 21bf 7f54 41be 6e29 c93e f0a7 303e
00000110: 1bf1 c23d 2dfd 2c3f 631b 60bd ebaa 593d
00000120: 04b6 c0bd ea17 4b3e ce6d bf3e a035 80be
00000130: a52e 5a3e 2593 b93d fd2e 423d 7959 b7bd
00000140: f10a 243e dafa 1a3f 389d a43e 3cd7 e9bd
00000150: 5b69 05bf 6788 01bf 1aaa 793e ac39 1b3d
00000160: a594 10be 6360 7a3d 46bd bfbe 7305 c53e
00000170: c1a3 95be 31e3 7f3e 636f 8bbe 4e2a cebd
00000180: d92a 0c3e 89ee e9be 8287 ddbc d933 d4bb
00000190: 52ec 003d 4e68 1bbd 6ef3 7e3e 3db5 c9be
000001a0: d93d c43c af63 c3bd d8ab b2bc ccc6 9abd
000001b0: 1d34 2b3f f97b 0c3e 07fb 163f c7a3 60bf
000001c0: ff47 de3d 1105 4abc 3481 a1be 48a3 a23e
000001d0: 1efe 2cbf 6211 713e f12b 243e eb51 30be
000001e0: 83c8 963d 8cba 113f 6be3 02bd 9dce 86be
000001f0: e0bb 16bb bbde b83e 300c 28be aeab 13bf
00000200: 4f6b 4dbd 54f3 a43c 61f8 17bd 1de1 0dbe
00000210: 8c64 7c3c 7925 df3d c42a 2cbd 7427 e0bd
00000220: de2f 653c 6ca2 993c 0097 35ba 94d6 56bc
00000230: b8bf adbc 9d24 d73d a120 193d 0ef5 623d
00000240: ad05 cabd 029c 58bd 0c25 2e3d af81 993d
00000250: e6fa 3b3d 4593 bebd b79d e13c c72f e53c
00000260: f913 b43d c03d f33c e627 84bc e257 3339
00000270: 0778 d13c 6a26 7b3d f723 f7bd abfd 993d
00000280: 64e2 22be 780a 93bd 426e 723c 47ee 203d
00000290: 31c0 c93b 7d7e a1bd 3cdd 083e 0318 053d
000002a0: fa97 373d 9a21 85bc c1ab 153e 6d93 e93c
000002b0: d631 a83d 61c9 fc3d 5355 983c 2d43 19bd
000002c0: da4d 083e 0de2 94bd 73e5 95bc 7283 e03d
000002d0: b3ed 1fbe 445f a7bc b10e 96bd fed9 2e3d
000002e0: 615a 21be ded0 2e3e 58cd 0bbe 537c 32bd
000002f0: 078d be3c ab6c fc3d 5991 de3d c535 fbbd
00000300: db84 0e3e 8800 563d 8705 093d ca14 e63d
00000310: 858f bb3b 7cef 923e b02c 1abe 8d66 26bd
00000320: cc9c b93e 5d7b 69ba a627 b4bc 40d0 fdbc
00000330: 3385 8dbe 822c 543e 46de 46be 6db1 e4bd
00000340: 87d1 1f3e 263c 14be 393a 0b3e 5e40 8abe
00000350: e468 d53d 5e6d 5b3e 8f91 0dbe 7618 42be
00000360: 6943 00be c03a 3bbe 564d 31bf 76f3 8e3d
00000370: e43b 643e d2aa bcbe 7946 f8bb 3573 10be
00000380: 37f6 01be 6acf e8bc 4597 d6be c8bf 78bd
00000390: 285d 1fbd d526 fe3d 2819 b0bc 6543 5a3e
000003a0: e2e9 0fbe 3f9a 51bd 4b9f 3ebe 1380 37be
000003b0: 9e9f cc3d 3722 3d3c bfee 3dbd a0ba a4bd
000003c0: 38fb 473d 073d e83d c08f a63e 3a47 99be
000003d0: 02aa 0fbd b03f 33be 58d8 103d 88a3 11bf
000003e0: 9d27 30be 6381 05bf 72c4 2fbc 0ac4 113e
000003f0: d5eb afbe 9df3 1cbe 4fa9 533e 55cc 1d3e

blocks.0.layers.1.film.adaptor.bias f4 [64]
0.039850183 0.010952458 -0.072887555 0.14884008 -0.012090671 0.11326453 0.041014634 0.21110106
-0.10772263 -0.039052285 0.080697306 0.012636538 -0.011004957 0.09981668 0.07351406 -0.08678417
0.006960612 -0.08582935 -0.035460368 -0.047609698 -0.019422403 0.025976347 -0.0015424618 0.062714145
0.052278787 0.0047484064 0.013111589 -0.11645337 0.048967313 -0.057792373 0.13057439 -0.0888803
0.5099062 0.0766085 0.6384599 -0.12413273 0.14123227 -0.31021482 -0.15301931 0.3135946
-0.059851307 -0.0282546 -0.32585335 0.07415019 -0.5123406 -0.06943723 0.115777925 0.13663442
-0.8269143 -1.7333254 -2.2888203 -1.996372 -0.9261766 -2.1382306 -1.9931543 -1.037076
-1.8222758 -0.6826747 -1.4429356 -0.2610028 -1.4232718 -1.2959524 -0.7730381 -1.7267267
00000000: f239 233d f071 333c 1246 95bd 8969 183e
00000010: f317 46bc 3cf7 e73d f6fe 273d e02a 583e
00000020: af9d dcbd 4af5 1fbd a144 a53d 7b09 4f3c
00000030: 234e 34bc b06c cc3d 8a8e 963d e6bb b1bd
00000040: d815 e43b 4cc7 afbd e43e 11bd 6302 43bd
00000050: bb1b 9fbc 59cc d43c 6e2c caba 4670 803d
00000060: 4822 563d 8598 9b3b fdd1 563c 1b7f eebd
00000070: f391 483d b2b7 6cbd 4bb5 053e e006 b6bd
00000080: 3689 023f ebe4 9c3d 1c72 233f 4d39 febd
00000090: 319f 103e 7ad4 9ebe 18b1 1cbe 798f a03e
000000a0: a526 75bd 3176 e7bc 40d6 a6be 0edc 973d
000000b0: c128 03bf 1b35 8ebd fa1c ed3d e5e9 0b3e
000000c0: a8b0 53bf 9bdd ddbf 087c 12c0 1e89 ffbf
000000d0: e919 6dbf c5d8 08c0 ae1f ffbf e8be 84bf
000000e0: 5540 e9bf c5c3 2ebf 1db2 b8bf 29a2 85be
000000f0: c52d b6bf c5e1 a5bf d3e5 45bf 6105 ddbf

blocks.0.layers.1.resi_con.weight f4 [16, 16, 1]
-0.33011883 0.48508546 -0.04556437 -0.4980059 1.3127832 0.08847864 -0.15351258 -0.008699779
0.040187977 -0.14288323 0.30805054 -0.16586213 0.16025496 0.5023377 0.019748561 0.56249994
0.16583167 -0.70036614 0.45038995 -0.16748413 -0.4747141 -0.56687665 0.19421549 -0.08402898
0.60255736 0.029756151 0.0088800285 0.33581087 -0.21319187 -0.112587675 0.72277224 -1.6690768
-0.13230306 -0.018713936 -0.030862233 -0.405053 0.8171561 0.82760274 -0.54958475 -0.067732446
0.66454333 -0.10619614 -0.5733568 -0.5070814 -0.10394723 -0.16130857 0.2874474 0.7947558
0.55528784 0.49749798 -0.93747675 0.5461956 0.7928944 0.14171013 -0.8764087 -0.24899381
0.65816426 -0.29637286 -0.3592907 -0.25754306 -0.48791105 -0.15752901 -0.21397084 0.095308244
-0.001518142 0.08848678 -0.45118672 -0.26812798 -0.2824367 -0.2164815 -0.054060046 -0.049680274
0.02197048 -0.10059246 -0.03253773 0.09194588 -0.09340208 -0.09962863 0.26935485 -0.22651565
-0.8394012 -0.4110109 0.80660844 -0.5759816 1.0500815 0.027529415 -0.17619735 0.4788905
-0.082909994 0.76008654 0.924445 0.13506578 -0.087531 0.057096668 0.20370327 0.44305623
-0.02394487 -0.5856437 -0.66934174 0.15846607 0.014507418 -0.49422294 -0.2733913 -0.16544564
-0.10362787 -0.37474042 -0.11262521 0.16699432 0.527684 0.30523756 -0.22012755 -0.07564122
-1.0278553 0.14122215 0.8177309 0.41310647 0.32982904 0.18529613 -0.60457176 0.48552316
-0.61826575 0.023133803 0.25197777 0.20306006 -0.022821764 -0.65131176 -0.042645905 0.6355151
0.1018424 0.027596613 0.66025907 -0.32795614 -0.034417383 -0.049770575 0.65144706 0.44005957
-0.34637874 0.38102755 0.39846763 0.15217385 -0.08772997 -0.03250836 0.862645 -0.25751743
1.2637006 -0.18430783 0.9759419 0.009095839 -0.7863088 -0.9777976 0.008722123 -0.21314217
-0.57622087 -0.31873167 -0.7676464 -0.16825901 -0.752616 0.31457624 -0.12213285 -1.3011277
0.090234555 -0.3095254 1.4531078 0.08968502 1.0061195 -0.4145684 -0.31947318 0.2794196
-0.4265562 -0.5202494 0.5892606 -0.62295127 -0.34122762 0.23067646 0.22020328 -0.77731764
0.7087229 -0.025084887 -0.53238684 -0.27066818 0.23179424 -0.36207494 -0.27708274 -0.19155368
-0.27323344 -0.48612398 0.09784941 -0.11324848 -0.37827304 0.4558808 0.52473426 1.1797297
-0.0315307 -0.312089 0.1430669 0.29197022 0.1906776 -0.9767767 -0.88570666 0.33302787
-0.61433554 -0.20238435 0.0057130125 -0.087838784 0.19407696 -0.21878895 -0.2442101 -1.5251738
0.07911918 0.52179784 -0.83980024 0.09342937 -0.1556653 1.0107971 1.1185739 -0.3604204
0.16875112 0.039357204 -0.48642203 -0.09467798 0.025678495 -0.113987446 -0.059650924 -0.17381501
-0.6514093 -0.7808341 -0.91113704 0.36123392 1.5186131 -0.20741369 -1.1617829 -0.27236417
0.8532229 0.084457956 -0.0854373 -0.5541474 0.15847088 0.13159157 0.4511546 0.49886873
-0.6377589 -0.0312586 -1.7948481 -0.45862082 -0.22898287 1.0598705 0.29910523 -0.16250248
0.29100543 -0.447123 0.26019138 -0.1706731 -0.74980295 0.15072505 0.005061555 2.1912773
00000000: 5605 a9be 1f5d f83e b4a1 3abd a1fa febe
00000010: 4809 a83f 4a34 b53d 6732 1dbe 8589 0ebc
00000020: 269c 243d fb4f 12be cdb8 9d3e c3d7 29be
00000030: e019 243e 3499 003f bcc7 a13c ffff 0f3f
00000040: c7cf 293e 324b 33bf 8399 e63e f680 2bbe
00000050: ba0d f3be d41e 11bf 6de0 463e 6317 acbd
00000060: 3341 1a3f 2cc3 f33c 8a7d 113c 67ef ab3e
00000070: f84e 5abe 5e94 e6bd 9a07 393f 4fa4 d5bf
00000080: 747a 07be f84d 99bc cbd2 fcbc 1b63 cfbe
00000090: 2431 513f c6dd 533f 96b1 0cbf 4fb7 8abd
000000a0: 831f 2a3f 5d7d d9bd 83c7 12bf 16d0 01bf
000000b0: 49e2 d4bd 132e 25be 4e2c 933e 1e75 4b3f
000000c0: 5827 0e3f 0eb8 fe3e 7afe 6fbf 7ad3 0b3f
000000d0: 21fb 4a3f 761c 113e 525c 60bf 3cf8 7ebe
000000e0: 747d 283f 2fbe 97be f3f4 b7be afdc 83be
000000f0: 7acf f9be 494f 21be 2c1b 5bbe f830 c33d
00000100: 64fc c6ba 8f38 b53d f201 e7be 1248 89be
00000110: 8b9b 90be 54ad 5dbe 116e 5dbd 8b7d 4bbd
00000120: 70fb b33c 6b03 cebd 4846 05bd 1f4e bc3d
00000130: 9749 bfbd 180a ccbd e1e8 893e b8f3 67be
00000140: ffe2 56bf 0570 d2be e47d 4e3f 8873 13bf
00000150: 1269 863f 5e85 e13c 146d 34be 2331 f53e
00000160: b7cc a9bd 0895 423f 6da8 6c3f af4e 0a3e
00000170: 7443 b3bd 32de 693d 9797 503e 44d8 e23e
00000180: 0828 c4bc bfec 15bf fb59 2bbf ee44 223e
00000190: 85b0 6d3c ca0a fdbe f2f9 8bbe 956a 29be
000001a0: d93a d4bd fadd bfbe 0ca8 e6bd 8f00 2b3e
000001b0: 4c16 073f 1948 9c3e 1e69 61be c9e9 9abd
000001c0: c390 83bf 8a9c 103e d056 513f b182 d33e
000001d0: 5adf a83e 45be 3d3e 37c5 1abf 7e96 f83e
000001e0: aa46 1ebf 1a83 bd3c 3b03 813e faee 4f3e
000001f0: b5f4 babc 5ebc 26bf 79ad 2ebd 1eb1 223f
00000200: c092 d03d 4b12 e23c bd06 293f dee9 a7be
00000210: 3ef9 0cbd 3bdc 4bbd 3cc5 263f 7d4f e13e
00000220: 8e58 b1be 0b16 c33e f303 cc3e 76d3 1b3e
00000230: c5ab b3bd 7c27 05bd 4dd6 5c3f 53d9 83be
00000240: f1c0 a13f 31bb 3cbe 54d7 793f b706 153c
00000250: 894b 49bf f250 7abf 3ce7 0e3c f141 5abe
00000260: 3683 13bf cc30 a3be 7984 44bf 174c 2cbe
00000270: 71ab 40bf 2310 a13e ca20 fabd 5a8b a6bf
00000280: e5cc b83d 1d7a 9ebe 70ff b93f c8ac b73d
00000290: 86c8 803f 4f42 d4be fd91 a3be 1610 8f3e
000002a0: 9365 dabe 112f 05bf c8d9 163f bc79 1fbf
000002b0: 63b5 aebe 7336 6c3e f87c 613e 4afe 46bf
000002c0: dd6e 353f d27e cdbc 814a 08bf 0595 8abe
000002d0: 785b 6d3e e361 b9be cadd 8dbe a626 44be
000002e0: 41e5 8bbe 3ee5 f8be 4565 c83d d2ee e7bd
000002f0: 01ad c1be 3569 e93e fc54 063f 6201 973f
00000300: 5626 01bd 21ca 9fbe 2180 123e 1f7d 953e
00000310: fd40 433e 0a0e 7abf acbd 62bf a182 aa3e
00000320: 1845 1dbf d83d 4fbe 3934 bb3b d2e4 b3bd
00000330: 1cbc 463e 360a 60be 3612 7abe e538 c3bf
00000340: 3d09 a23d 8b94 053f 26fd 56bf e657 bf3d
00000350: b966 1fbe cd61 813f 6e2d 8f3f 0689 b8be
00000360: 18cd 2c3e 0535 213d 4f0c f9be 87e6 c1bd
00000370: b55b d23c 4072 e9bd 8754 74bd 90fc 31be
00000380: c3c2 26bf bee4 47bf 4740 69bf a7f3 b83e
00000390: ea61 c23f 4164 54be 4db5 94bf 5173 8bbe
000003a0: d16c 5a3f 4bf8 ac3d c0f9 aebd 9bdc 0dbf
000003b0: 3146 223e f1bf 063e bcfd e63e b96b ff3e
000003c0: 2b44 23bf 0509 00bd 95bd e5bf 59d0 eabe
000003d0: 7c7a 6abe d6a9 873f 5224 993e 0d67 26be
000003e0: aafe 943e 4eed e4be ce37 853e eec4 2ebe
000003f0: 16f3 3fbf ab57 1a3e 67db a53b e33d 0c40

blocks.0.layers.1.resi_con.bias f4 [16]
0.043465793 -0.009464415 0.0017667875 0.04792039 0.05030314 0.108399905 0.0387438 -0.013245476
-0.0024088519 -0.14239103 0.02952183 -0.10728598 -0.037470717 0.030169245 0.03763308 0.11358962
00000000: 3009 323d a210 1bbc 8d93 e73a 2c48 443d
00000010: aa0a 4e3d c500 de3d d2b1 1e3d 8e03 59bc
00000020: d4dd 1dbb f4ce 11be c4d7 f13c c0b8 dbbd
00000030: e57a 19bd 7e25 f73c 2525 1a3d ada1 e83d

blocks.0.layers.2.conv.weight f4 [32, 16, 3]
-0.27811003 0.47218823 -0.32931632 -0.0917839 -0.8708277 0.5291076 1.1348721 -0.23917988
0.048607115 0.01876145 -0.2545151 1.3478987 -0.37051353 -0.35873893 0.9114116 -0.07508026
0.008445724 -0.8917424 -0.15211584 0.020620653 1.3983295 -0.07922447 1.0945197 0.5720519
0.04127339 1.221755 -0.2416537 0.23126154 -0.47794664 -0.29886344 0.3625989 0.35678253
-0.012207209 -1.1621276 0.18513687 0.6318954 -0.01820709 0.6317383 -0.021403397 0.7314326
-0.96154135 1.5330808 -0.62916815 -1.74071 0.5925 -0.48644784 -1.6823791 1.8405918
1.8269733 -3.084527 1.2562716 0.87372565 0.30971158 -0.28702524 2.020494 -2.1763241
1.5152755 -0.6400889 1.1327922 -0.47108036 -2.4021368 3.8267975 -1.2233915 1.2922926
-1.775692 0.87953466 -0.9430687 0.3452135 -0.84179366 -0.6074948 1.2852762 0.18692738
0.76101214 -1.2796105 -0.27177617 1.5656099 -2.3608475 1.1545879 1.2695956 -1.9360043
0.3873506 -0.59506387 0.4626419 0.8230562 -2.2934213 3.4365768 -1.0288309 -1.7136673
1.2811595 0.1187356 -0.5938658 0.7581717 -0.4826333 -1.633069 0.97202367 0.8684524
0.0060991794 0.3594449 -1.042748 1.2164125 -0.88274586 -0.24415673 -0.7720823 1.19158
-0.11725554 -0.7344835 -2.77154 0.6371054 0.12426092 0.50205106 -0.03218626 0.21889506
0.93920726 -0.8602437 -0.60671896 -1.0624428 0.31538284 1.6577952 -0.6263392 -1.2431667
-0.65091443 0.44038218 0.528088 1.0798353 0.93283063 -0.78177315 0.5729122 0.9171618
-1.7191081 -0.4316823 -0.6280042 1.32502 0.22236265 -0.5017107 0.6994912 0.7441846
0.44340456 0.34388152 1.438991 0.56093633 0.046879068 0.04868917 0.5690978 0.46819565
-0.48507482 2.478691 1.1132774 -0.98052824 1.3086323 -0.1480707 0.41653165 -0.63947505
-0.7177553 0.14970307 0.42810556 0.71433485 1.1536877 -0.11341646 -0.19824955 -0.6221993
0.2364632 -0.67447746 0.2267682 -1.1095653 -0.5569636 0.67781705 1.1560057 -0.5319057
-1.1206735 0.101308405 -1.1780396 -0.03718235 1.6537185 -1.1718197 1.4817009 2.4334588
-1.4692099 0.45389324 2.501783 -0.8993256 0.15059988 0.051004924 -0.6545004 2.9012957
0.055026166 1.5697407 0.54734516 0.05539343 1.028304 0.44810325 0.19858329 -0.26532897
-0.5496008 -0.91370636 -0.8092641 -0.67316556 -0.2921673 1.3911389 -0.08456312 -1.1388155
-0.62224895 0.63350147 0.83504266 -1.0146985 -0.072150834 -0.32549334 -0.28158808 -0.48916316
-0.73268896 -0.22255331 1.4678854 -1.0023044 -2.144504 0.015251761 0.20389374 0.35145393
-0.22331455 -0.40769354 0.4325963 -0.57057923 -0.49913338 0.8950948 -0.5912882 0.08600029
0.45538896 1.0687345 0.13023159 -1.7543901 0.32829404 -0.36801857 1.1885663 0.48039126
-0.5720141 -1.2734964 0.38285387 -0.234008 0.315348 1.223963 -0.26581803 -2.4277751
-0.7288479 0.02777606 -1.0148296 0.31206322 0.5257798 1.9065136 0.37299085 -0.089706406
-0.21571502 -0.80708796 1.0542778 -0.31738603 1.333347 1.2418545 0.7059775 -1.2349976
00000000: 7064 8ebe a8c2 f13e 269c a8be 33f9 bbbd
00000010: 90ee 5ebf 9873 073f 7d43 913f 92eb 74be
00000020: 4118 473d 9db1 993c ce4f 82be f287 ac3f
00000030: f3b3 bdbe a1ac b7be 4552 693f aec3 99bd
00000040: ef5f 0a3c 3b49 64bf 41c4 1bbe a5ec a83c
00000050: 76fc b23f 7040 a2bd 3919 8c3f fe71 123f
00000060: 490e 293d 7862 9c3f 1174 77be d3cf 6c3e
00000070: 6cb5 f4be a104 99be 90a6 b93e 33ac b63e
00000080: bf00 48bc 99c0 94bf 8594 3d3e e6c3 213f
00000090: 0927 95bc 9ab9 213f 2d56 afbc 2b3f 3b3f
000000a0: 9327 76bf fe3b c43f 2a11 21bf 96cf debf
000000b0: 14ae 173f b10f f9be 3358 d7bf 8398 eb3f
000000c0: 43da e93f e468 45c0 82cd a03f 7cac 5f3f
000000d0: 8492 9e3e f9f4 92be c64f 0140 e548 0bc0
000000e0: 8cf4 c13f dedc 23bf 56ff 903f 7231 f1be
000000f0: 9cbc 19c0 40ea 7440 1898 9cbf d869 a53f
00000100: e049 e3bf 2f29 613f f36c 71bf d3bf b03e
00000110: ca7f 57bf c784 1bbf ee83 a43f e469 3f3e
00000120: b1d1 423f 47ca a3bf 3f26 8bbe e865 c83f
00000130: 2018 17c0 89c9 933f 1c82 a23f fdce f7bf
00000140: d152 c63e 1b56 18bf 66df ec3e d0b3 523f
00000150: 6ac7 12c0 e0f0 5b40 bbb0 83bf 7359 dbbf
00000160: 09fd a33f a62b f33d 9707 18bf 8a17 423f
00000170: b61b f7be 6808 d1bf 8bd6 783f e652 5e3f
00000180: a0db c73b 2909 b83e c478 85bf 68b3 9b3f
00000190: a2fb 61bf 3904 7abe 30a7 45bf b285 983f
000001a0: ac23 f0bd 1c07 3cbf e960 31c0 5719 233f
000001b0: 827c fe3d 6b86 003f bdd5 03bd 0726 603e
000001c0: e36f 703f ee38 5cbf ef51 1bbf 20fe 87bf
000001d0: dc79 a13e a232 d43f c457 20bf 1620 9fbf
000001e0: 54a2 26bf c679 e13e c630 073f 0b38 8a3f
000001f0: fdcd 6e3f 4922 48bf 60aa 123f 1ecb 6a3f
00000200: bc0b dcbf 7605 ddbe e2c4 20bf 419a a93f
00000210: 09b3 633e 1d70 00bf db11 333f e282 3e3f
00000220: ec05 e33e 3d11 b03e db30 b83f 8699 0f3f
00000230: 4404 403d 4c6e 473d 65b0 113f 57b7 ef3e
00000240: ba5b f8be e0a2 1e40 e07f 8e3f e603 7bbf
00000250: 4381 a73f d89f 17be a343 d53e a3b4 23bf
00000260: d0be 37bf c34b 193e a730 db3e a6de 363f
00000270: 0aac 933f e446 e8bd ee01 4bbe 7448 1fbf
00000280: 6923 723e 8eaa 2cbf ec35 683e 3c06 8ebf
00000290: 2b95 0ebf 6b85 2d3f fff7 933f f92a 08bf
000002a0: 3b72 8fbf c87a cf3d 00ca 96bf 854c 18bd
000002b0: 0cad d33f 30fe 95bf 60a8 bd3f cabd 1b40
000002c0: 120f bcbf b264 e83e 361d 2040 343a 66bf
000002d0: db36 1a3e 8aea 503d 578d 27bf d4ae 3940
000002e0: 1e63 613d 43ed c83f d01e 0c3f 39e4 623d
000002f0: 779f 833f ca6d e53e 6b59 4b3e 33d9 87be
00000300: a3b2 0cbf a9e8 69bf ef2b 4fbf 9454 2cbf
00000310: f496 95be d710 b23f 6e2f adbd b5c4 91bf
00000320: b54b 1fbf 272d 223f 5bc5 553f a4e1 81bf
00000330: d1c3 93bd 10a7 a6be 502c 90be 9873 fabe
00000340: 8191 3bbf 04e5 63be abe3 bb3f 834b 80bf
00000350: 8e3f 09c0 86e2 793c 85c9 503e c5f1 b33e
00000360: 92ac 64be 35bd d0be 437d dd3e 7b11 12bf
00000370: 698e ffbe ef24 653f aa5e 17bf ec20 b03d
00000380: be28 e93e 4bcc 883f 6e5b 053e db8f e0bf
00000390: 2816 a83e ee6c bcbe f122 983f d8f5 f53e
000003a0: 846f 12bf ee01 a3bf 6c05 c43e cb9f 6fbe
000003b0: 4b75 a13e d2aa 9c3f 4d19 88be ab60 1bc0
000003c0: c795 3abf 9f8a e33c f0e5 81bf c0c6 9f3e
000003d0: 8199 063f a308 f43f a8f8 be3e feb7 b7bd
000003e0: 66e4 5cbe 519d 4ebf 93f2 863f 6c80 a2be
000003f0: 1dab aa3f 17f5 9e3f f1ba 343f 6714 9ebf

blocks.0.layers.2.conv.bias f4 [32]
0.075574614 -0.16683243 -0.5136319 -0.47073942 0.026019441 -0.0011974837 0.06982125 0.15667854
0.06913173 -0.6936998 0.01655768 0.44706053 -0.21553682 0.06946594 0.15487938 0.107967466
-0.039751027 0.08876573 -0.5879019 0.3830732 -0.005129254 -0.34651196 -0.020673022 -0.07363824
-1.9023093 -0.15154381 -0.018198565 -0.3543257 0.019768856 -1.5953879 0.25537255 -0.050883513
00000000: ddc6 9a3d 1fd6 2abe 617d 03bf c204 f1be
00000010: b926 d53c e3f4 9cba 72fe 8e3d 5770 203e
00000020: f094 8d3d 4f96 31bf f9a3 873c 1ee5 e43e
00000030: afb5 5cbe 2944 8e3d b398 1e3e 0c1e dd3d
00000040: f9d1 22bd cfca b53d bd80 16bf 2c22 c43e
00000050: 4d13 a8bb 046a b1be 785a a9bc a5cf 96bd
00000060: df7e f3bf 4d2e 1bbe 2815 95bc 2e6a b5be
00000070: 4cf2 a13c ac35 ccbf 31c0 823e 3b6b 50bd
